…
tamp":1601244348601,"user_tz":360,"elapsed":9699,"user":{"displayName":"Peiyu Li","photoUrl":"","userId":"12219071892359382680"}},"outputId":"f8ead42c-7df5-41d8-e5a4-8054228c1a19","colab":{"base_uri":"https://localhost:8080/","height":391}},"source":["model.summary()"],"execution_count":36,"outputs":[{"output_type":"stream","text":["Model: \"sequential\"\n","_________________________________________________________________\n","Layer (type)                 Output Shape              Param #   \n","=================================================================\n","embedding (Embedding)        (None, 50, 128)           433664    \n","_________________________________________________________________\n","conv1d (Conv1D)              (None, 46, 64)            41024     \n","_________________________________________________________________\n","global_max_pooling1d (Global (None, 64)                0         \n","_________________________________________________________________\n","dense (Dense)                (None, 250)               16250     \n","_________________________________________________________________\n","dropout (Dropout)            (None, 250)               0         \n","_________________________________________________________________\n","activation (Activation)      (None, 250)               0         \n","_________________________________________________________________\n","dense_1 (Dense)              (None, 1)                 251       \n","=================================================================\n","Total params: 491,189\n","Trainable params: 491,189\n","Non-trainable params: 0\n","_________________________________________________________________\n"],"name":"stdout"}]},{"cell_type":"code","metadata":{"id":"8zi5QY98eypS","executionInfo":{"status":"ok","timestamp":1601244348602,"user_tz":360,"elapsed":9679,"user":
…
